…
│ (BatchNormalizatio… │ 256)              │            │                   │
├─────────────────────┼───────────────────┼────────────┼───────────────────┤
│ activation_3        │ (None, 8, 16,     │          0 │ batch_normalizat… │
│ (Activation)        │ 256)              │            │                   │
├─────────────────────┼───────────────────┼────────────┼───────────────────┤
│ conv2d_6 (Conv2D)   │ (None, 8, 16,     │     33,024 │ add_1[0][0]       │
│                     │ 256)              │            │                   │
├─────────────────────┼───────────────────┼────────────┼───────────────────┤
│ max_pooling2d_5     │ (None, 4, 8, 256) │          0 │ activation_3[0][… │
│ (MaxPooling2D)      │                   │            │                   │
├─────────────────────┼───────────────────┼────────────┼───────────────────┤
│ max_pooling2d_6     │ (None, 4, 8, 256) │          0 │ conv2d_6[0][0]    │
│ (MaxPooling2D)      │                   │            │                   │
├─────────────────────┼───────────────────┼────────────┼───────────────────┤
│ add_2 (Add)         │ (None, 4, 8, 256) │          0 │ max_pooling2d_5[… │
│                     │                   │            │ max_pooling2d_6[… │
├─────────────────────┼───────────────────┼────────────┼───────────────────┤
│ conv2d_7 (Conv2D)   │ (None, 4, 8, 512) │  1,180,160 │ add_2[0][0]       │
├─────────────────────┼───────────────────┼────────────┼───────────────────┤
│ batch_normalizatio… │ (None, 4, 8, 512) │      2,048 │ conv2d_7[0][0]    │
│ (BatchNormalizatio… │                   │            │                   │
├─────────────────────┼───────────────────┼────────────┼───────────────────┤
│ activation_4        │ (None, 4, 8, 512) │          0 │ batch_normalizat… │
│ (Activation)        │                   │            │                   │
├─────────────────────┼───────────────────┼────────────┼───────────────────┤
│ conv2d_8 (Conv2D)   │ (None, 4, 8, 512) │    131,584 │ add_2[0][0]       │
├─────────────────────┼───────────────────┼────────────┼───────────────────┤
│ max_pooling2d_7     │ (None, 2, 4, 512) │          0 │ activation_4[0][… │
│ (MaxPooling2D)      │                   │            │                   │
├─────────────────────┼───────────────────┼────────────┼───────────────────┤
│ max_pooling2d_8     │ (None, 2, 4, 512) │          0 │ conv2d_8[0][0]    │
│ (MaxPooling2D)      │                   │            │                   │
├─────────────────────┼───────────────────┼────────────┼───────────────────┤
│ add_3 (Add)         │ (None, 2, 4, 512) │          0 │ max_pooling2d_7[… │
│                     │                   │            │ max_pooling2d_8[… │
├─────────────────────┼───────────────────┼────────────┼───────────────────┤
│ conv2d_9 (Conv2D)   │ (None, 2, 4, 512) │  2,359,808 │ add_3[0][0]       │
├─────────────────────┼───────────────────┼────────────┼───────────────────┤
│ batch_normalizatio… │ (None, 2, 4, 512) │      2,048 │ conv2d_9[0][0]    │
│ (BatchNormalizatio… │                   │            │                   │
├─────────────────────┼───────────────────┼────────────┼───────────────────┤
│ activation_5        │ (None, 2, 4, 512) │          0 │ batch_normalizat… │
│ (Activation)        │                   │            │                   │
├─────────────────────┼───────────────────┼────────────┼───────────────────┤
│ conv2d_10 (Conv2D)  │ (None, 2, 4, 512) │    262,656 │ add_3[0][0]       │
├─────────────────────┼───────────────────┼────────────┼───────────────────┤
│ add_4 (Add)         │ (None, 2, 4, 512) │          0 │ activation_5[0][… │
│                     │                   │            │ conv2d_10[0][0]   │
├─────────────────────┼───────────────────┼────────────┼───────────────────┤
│ conv2d_11 (Conv2D)  │ (None, 2, 4, 512) │  2,359,808 │ add_4[0][0]       │
├─────────────────────┼───────────────────┼────────────┼───────────────────┤
│ batch_normalizatio… │ (None, 2, 4, 512) │      2,048 │ conv2d_11[0][0]   │
│ (BatchNormalizatio… │                   │            │                   │
├─────────────────────┼───────────────────┼────────────┼───────────────────┤
│ activation_6        │ (None, 2, 4, 512) │          0 │ batch_normalizat… │
│ (Activation)        │                   │            │                   │
├─────────────────────┼───────────────────┼────────────┼───────────────────┤
│ conv2d_12 (Conv2D)  │ (None, 2, 4, 512) │    262,656 │ add_4[0][0]       │
├─────────────────────┼───────────────────┼────────────┼───────────────────┤
│ add_5 (Add)         │ (None, 2, 4, 512) │          0 │ activation_6[0][… │
│                     │                   │            │ conv2d_12[0][0]   │
├─────────────────────┼───────────────────┼────────────┼───────────────────┤
│ conv2d_13 (Conv2D)  │ (None, 2, 4, 512) │  2,359,808 │ add_5[0][0]       │
├─────────────────────┼───────────────────┼────────────┼───────────────────┤
│ batch_normalizatio… │ (None, 2, 4, 512) │      2,048 │ conv2d_13[0][0]   │
│ (BatchNormalizatio… │                   │            │                   │
├─────────────────────┼───────────────────┼────────────┼───────────────────┤
│ activation_7        │ (None, 2, 4, 512) │          0 │ batch_normalizat… │
│ (Activation)        │                   │            │                   │
├─────────────────────┼───────────────────┼────────────┼───────────────────┤
│ conv2d_14 (Conv2D)  │ (None, 2, 4, 512) │    262,656 │ add_5[0][0]       │
├─────────────────────┼───────────────────┼────────────┼───────────────────┤
│ add_6 (Add)         │ (None, 2, 4, 512) │          0 │ activation_7[0][… │
│                     │                   │            │ conv2d_14[0][0]   │
├─────────────────────┼───────────────────┼────────────┼───────────────────┤
│ global_average_poo… │ (None, 512)       │          0 │ add_6[0][0]       │
│ (GlobalAveragePool… │                   │            │                   │
├─────────────────────┼───────────────────┼────────────┼───────────────────┤
│ dense (Dense)       │ (None, 234)       │    120,042 │ global_average_p… │
└─────────────────────┴───────────────────┴────────────┴───────────────────┘
 Total params: 9,740,586 (37.16 MB)
 Trainable params: 9,735,530 (37.14 MB)
 Non-trainable params: 5,056 (19.75 KB)
PHASE3_DEBUG: has_validation=False
PHASE3_DEBUG: checkpoint_enabled=False
ONLINE_AUG: prob=0.6 noise_std=0.015 time_shift_frac=0.1 time_mask_frac=0.08 freq_mask_frac=0.08 mixup_alpha=0.0
…
